dqn_model.pt (torch, 224813 bytes, 6 tensors)

net.0.weight f4 [128, 300]
000000 1b ed d2 bc cf e6 27 3d 33 cd cf 3c 88 da cd bc
       -0.025747826 0.0409916 0.025366401 -0.025128618
000010 04 03 32 3d 23 73 3a bd 65 d4 a4 bc 30 4b 82 bc
       0.043459907 -0.04551996 -0.020120809 -0.015904993
000020 97 2c 64 bb 06 19 dd 3a 81 e6 0f 3c 8c 48 6a 3d
       -0.0034816617 0.001686842 0.008782984 0.057198092
000030 69 68 23 3d 93 ee 4a 3d 92 ca ab 3c fa fd 99 bc
       0.039894495 0.04954393 0.020970616 -0.018797863
000040 f0 3e 98 3d 2d 8e 48 3d 1c c7 85 3d b6 a3 78 3d
       0.074338794 0.048963714 0.06532118 0.060703002
000050 be 4e dd 3b a6 a8 8b bd 35 39 5f 3d ea da 79 bd
       0.0067537716 -0.068192765 0.054497916 -0.06099979
000060 3d e6 8b bc 97 9b 76 3c 49 b6 f8 bc f8 17 03 bd
       -0.01707756 0.015051744 -0.030360358 -0.03200528
000070 64 d5 15 3d c4 e4 0c 3d 48 14 6a 3d ea 0d c3 3b
       0.03658046 0.034397855 0.057148248 0.0059525864
000080 3a 5a d2 3b 02 10 40 bb 95 8e c9 3c 39 36 dd bc
       0.0064194473 -0.0029306416 0.024604121 -0.027003394
000090 ad f9 3a ba 39 f1 14 3d 64 01 6e 3d d2 90 21 bc
       -0.00071325415 0.03636286 0.058106795 -0.009861188
0000a0 97 7c 0d bc 97 76 9c 3d 42 35 c0 bc e3 b6 a0 bc
       -0.008635662 0.07639807 -0.023462895 -0.019618457
0000b0 9e 0b 8e 3d 65 02 db 3b a6 67 99 bb 6b 36 10 3d
       0.069358096 0.006683635 -0.0046815453 0.035208147
0000c0 63 5e 98 3c d3 e1 0a bc 1a b0 90 bc 63 5f 69 3d
       0.018599695 -0.008476692 -0.017662097 0.056975733
0000d0 f4 7b ca bc 1a d8 85 3d 97 a4 27 bc 65 77 63 3b
       -0.024717309 0.06535359 -0.010232112 0.0034708616
0000e0 f1 2f c5 3b 40 82 79 3d 4f fa 32 bc 45 cd e9 3a
       0.006017678 0.06091523 -0.010923936 0.0017837664
0000f0 aa 75 8e bc ff a2 8f 3c cb 30 54 3d dd 7a 93 bd
       -0.017390091 0.017533777 0.051804345 -0.07201169
000100 53 39 ef bc b0 27 bf 3c 57 2c 04 bd 96 01 38 bd
       -0.029202139 0.023334354 -0.03226885 -0.044923387
000110 0a a3 33 3d cc 02 88 3b fc 28 d8 bb ff 52 bc 3c
       0.043856658 0.004150724 -0.0065966826 0.022988794
000120 65 87 ce bd a7 1a b3 bc 51 76 61 bd e5 46 f2 3c
       -0.10084418 -0.021863295 -0.055044476 0.02957482
000130 9c 95 07 3d 7e 79 aa 3c 1a 34 2f bd 12 f9 44 3d
       0.033101663 0.020809885 -0.042774297 0.048089094
000140 b1 eb 3d bc 12 c9 0b 3c c5 74 58 3d 40 1e ec 3a
       -0.011591838 0.008531826 0.052845735 0.0018014386
000150 8e 7e 81 3d 38 c0 02 3a 69 e8 00 3d c1 de 6e 3d
       0.063229665 0.0004987749 0.031471644 0.058317903
000160 71 ce 3b bd 7a 26 7e 3d 24 13 2d 3d fe d1 36 3b
       -0.045851175 0.062048413 0.042254582 0.0027896161
000170 8c 06 30 3d 06 a5 28 bb 0a ac c3 3c 88 25 bf 3c
       0.042974994 -0.0025733127 0.023885746 0.023333326
000180 3e 27 a1 3c 04 aa 7b bc 31 f2 e9 bc c5 a5 f2 3c
       0.019672032 -0.015360359 -0.028557869 0.02962006
000190 b9 4a 3c bd ed 5f 3e bc 2e ac 6e ba e3 94 ab bc
       -0.0459697 -0.01161955 -0.0009104636 -0.020945018
0001a0 e1 ae a6 bc 3f e3 35 bd 22 fb 00 3c 3b 2b ad bc
       -0.02034706 -0.044406172 0.007872375 -0.021138778
0001b0 8b 6e bd 3c d5 af d5 ba e0 85 2f 3c b4 95 4a bd
       0.023124 -0.0016303012 0.010713071 -0.049459174
0001c0 96 22 ab bc 1b 9b f1 bc 3f 46 23 3c b1 70 09 3c
       -0.020890515 -0.029492905 0.009965478 0.008388684
0001d0 98 00 a1 3c df c4 35 3d c3 68 da bc ec ba 1c bc
       0.019653603 0.044377204 -0.026661282 -0.00956605
0001e0 3e 86 14 3d fa ea 7b bd 85 0d 09 3d eb 9c 4e bd
       0.036260836 -0.061503388 0.03346016 -0.050442617
0001f0 bf 9e 3b bd f0 b7 21 bd bd 55 6f bd b5 63 22 bd
       -0.04580569 -0.039482057 -0.058431376 -0.03964587
000200 09 ea 22 3d 27 38 62 bb e9 5c e6 bc 7f 54 00 3b
       0.039773975 -0.0034518333 -0.028120475 0.0019581614
000210 5a 70 31 3d 50 2e 84 3d fc 3b 96 3d e1 bb f5 bb
       0.043320037 0.06454146 0.0733566 -0.0074992036
000220 6a 8c c2 3c e2 dd a3 3d 69 23 ab 3d 15 52 74 bb
       0.023748595 0.08001305 0.08356363 -0.003728037
000230 52 3c 37 bd c9 65 f7 bc 37 b5 d6 bb f0 85 b3 bc
       -0.04473526 -0.030199902 -0.006552364 -0.021914452
000240 d3 78 28 bd d4 a5 6e ba 7f 81 d3 bc b2 3e 0b 3d
       -0.041130852 -0.000910369 -0.025818584 0.033995338
000250 8a d0 8c bd 97 bd fc bb 86 b2 bd bc 37 13 4c bc
       -0.06875713 -0.0077130306 -0.023156416 -0.012455753
000260 85 09 0c bd 43 4e 23 3c 3e 7a 02 bd 9f bc 66 3d
       -0.034188766 0.0099673895 -0.03185486 0.056332227
000270 ff 7c 68 bd a2 e5 bd 3c 5f 3c 08 bd db 88 0c bd
       -0.05675983 0.023180787 -0.0332607 -0.034310203
000280 4d f8 c6 bb dc 0b a1 bc 9b 8c 90 bc 83 fc 87 3d
       -0.00607208 -0.019658975 -0.01764517 0.0663996
000290 31 7f 23 3d d2 7b 07 3d de 0e 3e bc 12 da 94 bd
       0.03991622 0.03307707 -0.011600224 -0.07268156
0002a0 df a0 8a 3d de b0 04 3d 14 e6 a6 3d fa 64 22 3d
       0.06768965 0.032395236 0.08149353 0.03964708
0002b0 f3 92 a0 bd 29 31 b1 bd 02 2f f3 3b 9d 1e 13 bd
       -0.07840528 -0.08651955 0.0074213753 -0.035917867
0002c0 b4 b0 3e 3c 7f 6a 84 bd 20 ee e3 3b 0e 44 75 3b
       0.011638809 -0.06465625 0.006955877 0.0037424597
0002d0 d3 30 ae bd 61 f4 13 bd 22 03 38 3d a2 39 18 3d
       -0.08505406 -0.03612173 0.044924863 0.037164338
0002e0 c2 bc 9e 3d ae f7 0b bd 7d f4 46 bd e0 67 7d 3c
       0.077508464 -0.034171753 -0.048573006 0.01546666
0002f0 af 4e 26 3d 68 c1 75 bc b4 b4 0c bc a0 43 ee 3c
       0.040602382 -0.014999725 -0.008588005 0.02908498
000300 29 74 83 bc 62 c3 85 bc 0b 11 28 bd 85 09 15 bd
       -0.0160466 -0.016328517 -0.04103188 -0.03638603
000310 da 61 23 bd 36 22 78 bc 57 b9 61 3c af 16 26 3c
       -0.03988824 -0.015144875 0.013777099 0.010137244
000320 d8 40 97 3c fe e0 e1 3c be 8d 77 bc 17 48 a3 bc
       0.018463537 0.027573105 -0.015109478 -0.019931836
000330 d7 47 9e bd 9a 68 9d 3c 3b f0 68 3c 09 7a a1 3c
       -0.07728546 0.019214917 0.014217432 0.019711511
000340 f8 a0 f4 3c 13 2c 66 3d cf c8 05 bd 7b 17 b8 3d
       0.029861912 0.056194376 -0.03266221 0.089888535
000350 a3 89 ea bc 2f aa df 3b 71 09 5f bd b3 a3 03 bd
       -0.028630083 0.0068257074 -0.054452363 -0.032138538
000360 1b 67 0e 3d 07 0c 84 bd 41 39 84 bd a6 fb a8 bd
       0.034766298 -0.064476065 -0.06456233 -0.08251123
000370 e5 f9 26 3d 6e 55 c3 3a db 46 38 3d 85 f5 75 bb
       0.04076566 0.0014902779 0.044989448 -0.0037530374
000380 35 3c 0b bd 18 95 02 bd 51 14 51 3d 25 4d ac 3c
       -0.033992965 -0.031880468 0.051044766 0.02103288
000390 20 ff f1 3b cb 25 18 bd 11 37 a1 bc 7a 45 1b 3d
       0.0073851496 -0.037145417 -0.019679578 0.037908055
0003a0 a3 35 02 3d 0e 5e 0f bc 9b df f0 bc d8 aa fd 3c
       0.031789433 -0.008750452 -0.029403498 0.030965254
0003b0 43 fc 6c bd 26 42 87 bc 44 d4 e1 bc 88 3b d2 3c
       -0.057857763 -0.016511034 -0.027567036 0.025663152
0003c0 78 63 47 bb e9 09 82 ba b5 76 76 3c 40 bc fc 3c
       -0.0030424278 -0.0009921166 0.01504295 0.030851483
0003d0 43 be f7 bc 89 f6 89 3d d2 da 4f bd 18 bc c4 3c
       -0.030242091 0.06736476 -0.050745793 0.024015471
0003e0 f4 41 dd bb 6e 13 8f bd 87 6a 46 bd f4 65 fc 3b
       -0.006752247 -0.06986128 -0.048441436 0.0077025834
0003f0 99 4b 08 bd db 36 ff 3c 74 96 79 3b b0 d7 56 3d
       -0.03327522 0.031154087 0.0038084062 0.05245179

net.0.bias f4 [128]
000000 81 73 13 3d 55 c7 c9 bc ba b0 f8 3c a6 66 87 bc
       0.035998825 -0.024631182 0.030357707 -0.016528439
000010 e8 b2 2b bd 06 b8 4f bd f1 50 ae 3a c4 8f 26 3c
       -0.041918665 -0.050712608 0.0013299269 0.010166112
000020 f6 4b 27 3d 6a cb 29 bd df fc 20 3c 60 09 35 3c
       0.040843926 -0.041453756 0.009825914 0.011049598
000030 93 2f 79 bd 61 33 98 bc 91 df 25 bd ec 7b 58 bd
       -0.060836386 -0.018579187 -0.040496413 -0.052852556
000040 84 c6 a3 bc 0d 7a c3 3c f1 b1 71 bd b6 d1 46 3d
       -0.01999212 0.02386191 -0.05900759 0.04853984
000050 0c 6d 09 3d e0 9d 7a 3b 34 2d 44 bd 13 93 12 bd
       0.03355126 0.0038241073 -0.04789467 -0.035784792
000060 79 63 49 3d 37 19 4a 3d b4 95 74 3c 46 a7 52 bd
       0.04916713 0.049340453 0.01492827 -0.051429056
000070 24 f1 34 bd 9d 5f 1b bd 9a c3 0a bd e4 05 61 bd
       -0.044175282 -0.03793298 -0.033877946 -0.05493726
000080 b6 cf ac 3c 5f 3c 21 bd 5d f3 29 bd ff a7 3d bd
       0.021095138 -0.039364215 -0.041491855 -0.04630279
000090 75 d6 4f bd c8 f3 a6 bc 4f 9e c4 bc 74 d6 f9 bb
       -0.05074163 -0.020379916 -0.024001269 -0.0076244418
0000a0 e5 15 65 3d 58 6a 1f bc 60 37 8a bc bd 3a 7b 3c
       0.055929083 -0.009729944 -0.016872108 0.0153338285
0000b0 d3 6d 5b bc 42 94 42 bd 04 54 14 3d 4b 57 12 3d
       -0.013392883 -0.04750467 0.036212936 0.03572778
0000c0 53 df b1 3c 79 f4 d6 3b 6f 37 6b bc d3 d4 2a 3d
       0.021712935 0.006559905 -0.014356478 0.04170687
0000d0 b9 38 36 3d ca 3d 6a bc c4 3c cd 3c f7 6c 8a 3c
       0.04448769 -0.014296958 0.02505339 0.016897662
0000e0 fa 90 eb 3c 17 92 40 3b 62 b7 d0 bc 0b 49 c9 3c
       0.028755654 0.0029383951 -0.025478069 0.024570962
0000f0 54 32 18 bd 74 5b ba bc 19 71 c4 3c 39 d3 e8 3c
       -0.03715737 -0.022748686 0.02397971 0.028421031
000100 4e 97 2d bc 0f 44 a7 bc 7e 5d da bc fe ca 81 3c
       -0.010595156 -0.020418195 -0.026655909 0.015843865
000110 a5 46 dd 3c 8a 71 86 bd 44 5d 35 bd 58 9c b2 bc
       0.027011225 -0.065646246 -0.0442784 -0.021803066
000120 9f 1d 2f bd d9 28 15 3d 7b 3a 4a 3a 85 6f ae 3c
       -0.04275286 0.03641591 0.0007714403 0.021293411
000130 b9 d5 19 bd 2f 7d e6 bb db 34 11 3c 77 7c c2 bb
       -0.037557337 -0.007033966 0.008862699 -0.0059352475
000140 44 bf 49 bd b6 83 72 bd e7 30 c0 3c 31 f2 05 3d
       -0.04925467 -0.05920764 0.023460818 0.032701675
000150 bf 26 2c 3a 15 81 18 ba 7e ff fe bc 84 82 1b 3d
       0.0006567053 -0.00058175746 -0.031127688 0.037966266
000160 85 15 0d bd 40 ca 7f 3c af bc 6e bd d7 ab 3b bc
       -0.03444435 0.015612185 -0.05828541 -0.011454544
000170 f1 53 d2 bc 18 08 07 3d 8c 7c 25 bd f5 4d 08 bd
       -0.025674792 0.032966703 -0.04040198 -0.03327747
000180 e7 24 4f bd f5 d1 04 bd b3 f1 02 3d d3 40 14 3d
       -0.050572302 -0.032426793 0.031968784 0.036194634
000190 6d 6d 69 bd c6 6f bd 3c 58 f1 04 bd 0a 22 f0 3c
       -0.056989122 0.023124587 -0.032456726 0.029313106
0001a0 73 1a 47 3d f8 da 39 bd bd 72 55 3d 96 dd 33 bd
       0.04860921 -0.04537484 0.052111376 -0.043912493
0001b0 b7 77 c8 bc 36 d3 f9 bb 5e 66 51 bd bf 66 44 bd
       -0.024471147 -0.0076240553 -0.051123016 -0.04794955
0001c0 05 45 1f 3d 3c 0d 6c bd 50 41 0b bd 3c ec 3d bd
       0.03888418 -0.05762981 -0.033997834 -0.04636787
0001d0 1d 0a 1d 3c e7 d4 34 bd 28 75 35 bd 75 44 23 bd
       0.009584931 -0.044148352 -0.044301182 -0.039860208
0001e0 97 93 4a bd 9a 8b 11 bd a5 58 f5 bc 65 1e 35 bd
       -0.04945716 -0.035533525 -0.029949496 -0.04421844
0001f0 43 80 2c bd 9b 12 0d 3c 6b bc 87 bc 1a 70 6d bd
       -0.042114507 0.008610393 -0.016569337 -0.057968237

net.2.weight f4 [128, 128]
000000 82 18 3c bc ee c3 2d 3d 1c d5 c6 bc 69 fd 2c 3d
       -0.0114804525 0.04242318 -0.02427154 0.04223386
000010 44 f5 81 3d 94 b7 8b 3d 73 0c 51 bd a5 fe b8 3c
       0.06345609 0.06822124 -0.051037263 0.022582361
000020 db 59 b8 bd 36 3f 26 3c 9f c0 85 3d fe c8 1e bd
       -0.090015136 0.010146907 0.0653088 -0.0387659
000030 59 d3 72 3d 78 bf ca bc e2 67 2d bd c7 86 b8 bc
       0.059283588 -0.024749503 -0.0423354 -0.022525204
000040 24 7d 72 3b df 4b aa 3c 19 4e 42 3d cc 15 d6 3c
       0.003700086 0.020788131 0.04743776 0.02613344
000050 41 62 54 bc 62 33 e5 ba 7e f3 5e bd 22 58 53 bd
       -0.012962879 -0.0017486627 -0.05443143 -0.051597722
000060 fe bf dc bd 0e 43 01 3c bd e1 84 bd 36 7c 9e 3d
       -0.10778807 0.007889522 -0.06488369 0.07738535
000070 9f cf db 3c fc 8c a7 3d 2b 69 37 bd 7c de 8b 3c
       0.0268324 0.081811875 -0.04477803 0.017073862
000080 54 b8 7a 3d 67 74 14 3d 55 5e 91 bd 10 63 26 3d
       0.061210945 0.036243822 -0.070980705 0.040621817
000090 b3 23 6a bc 00 f5 50 3d cf d1 bd bd 70 04 bc 3c
       -0.014290738 0.0510149 -0.092685334 0.022951335
0000a0 60 8d 9d bd 47 78 01 bd fd 43 8e bc cf a4 9f bd
       -0.07692981 -0.031608846 -0.017366404 -0.077951066
0000b0 76 83 9f bd 9f ec 30 bd 58 57 eb 3b 44 4b 6e 3c
       -0.07788746 -0.04319441 0.007182043 0.014544312
0000c0 40 82 7b 3c 48 ce 9c bc 84 d2 1e 3d d4 96 29 bd
       0.015350878 -0.019141331 0.038774982 -0.041403607
0000d0 01 eb ba 3c 0a 27 85 bd 53 dc 9f 3d 34 8b 87 bd
       0.022817137 -0.06501587 0.078056954 -0.06618348
0000e0 e6 75 d7 3c 86 cb a3 3d ea 83 4d bd ec 52 cb 3d
       0.026301336 0.079978034 -0.05017463 0.099279255
0000f0 dd 31 5f bc 81 06 06 bc 4d 97 3d 3d 41 da 55 bc
       -0.013622728 -0.008180262 0.04628687 -0.013052524
000100 6b 3d bb 3c ff 1f 63 bd 89 55 d8 3d b9 8b 08 3d
       0.022856435 -0.055450436 0.105631895 0.033336375
000110 a5 48 2f 3d 1a bc db 3c 95 82 86 3d e6 b9 11 3d
       0.04279389 0.026823092 0.06567875 0.035577677
000120 6c 36 93 bd 02 a9 25 3c 8e d1 9c 3d d2 fd b1 bd
       -0.071881145 0.010111095 0.07657157 -0.086909905
000130 60 ae df 3c 85 ae d0 3c f7 5e a1 3d 60 fc e6 3c
       0.027304828 0.025473842 0.07879441 0.028196514
000140 54 be 29 bd 24 d1 81 bd 18 2f a9 bd 80 ec c9 bb
       -0.041441277 -0.063387185 -0.082609355 -0.006162226
000150 68 c1 d5 3b 44 92 b5 3c f7 c6 dc 3c 04 1b 1c 3c
       0.0065233 0.022164471 0.026950343 0.009527925
000160 49 c7 a3 bc 93 e4 4f bd 07 27 1e 3c 69 b4 45 bb
       -0.019992488 -0.050755095 0.0096528595 -0.0030167347
000170 e3 be 07 3d 40 85 19 bc ed 18 a6 bd 9a ed 84 3d
       0.033141028 -0.009370148 -0.08110223 0.064906314
000180 fb 1c 3a bd 5b c0 5a bd 44 32 37 3d 18 cb 43 3d
       -0.045437794 -0.0534061 0.04472567 0.047801107
000190 ee dd 3b bd 36 ff a1 3d cf d1 3f 3d ab f7 6d 3d
       -0.045865946 0.07910006 0.04683095 0.058097523
0001a0 0e f2 13 3c 26 59 07 3d 00 fa 37 3d 2c 89 b5 bd
       0.009029878 0.033044003 0.044916153 -0.08864054
0001b0 83 9b 82 bd 02 da 4e 3d d0 e1 ba 3d 27 70 d9 3c
       -0.06377318 0.050500877 0.091251016 0.026542736
0001c0 2a e0 83 bc e9 d8 b5 bd cf 3a 19 bd ea ce 1e 3c
       -0.0160981 -0.08879263 -0.0374096 0.009692887
0001d0 5e 49 8c 3d 0a fc ae 3c f2 2a b8 bd 6d 4d 5d bd
       0.06849931 0.021360416 -0.08992566 -0.054028917
0001e0 4f e1 2f 3d ff 05 2c 3c f0 3e 23 bc f4 c5 54 3d
       0.04293948 0.010499476 -0.009963736 0.051946595
0001f0 04 df bc 3d cb a1 35 bd 3b 93 7c bb 26 9e 5e bd
       0.09222224 -0.04434375 -0.0038539905 -0.05435004
000200 c1 f0 66 3d 40 ab cc bc 21 f3 2e 3d d3 fa 0f 3c
       0.056381945 -0.024984002 0.042712335 0.0087878285
000210 4f b0 a9 3d 9e 61 5e bd 1d 74 81 bd 6c 18 4b 3c
       0.08285581 -0.054292314 -0.06320975 0.012395959
000220 a3 ac f2 3c 40 62 83 3c 72 c1 62 3d bb 8d fc 3c
       0.029623335 0.01603806 0.055360265 0.030829301
000230 9a 4e a4 bb b5 c6 0d bc 74 96 50 bd 1d 8d 8b 3d
       -0.005014253 -0.0086533325 -0.050924733 0.068140246
000240 4e db a0 3d 77 12 6b bd 57 1b 40 3d 54 53 9e 3c
       0.07854329 -0.057390656 0.046901073 0.019326843
000250 f1 52 9b bc 30 60 11 3b d7 61 d6 bc 05 1b bc bc
       -0.018960448 0.0022182576 -0.0261697 -0.022962103
000260 e4 fa 38 3d ad 1b f3 3c a0 29 c4 3b a1 7b 84 bd
       0.045161143 0.029676283 0.0059864074 -0.06468893
000270 17 2d db bc a9 60 6e 3d 4b e2 66 3d 62 48 86 bd
       -0.026754899 0.05819765 0.056368154 -0.06556775
000280 59 e9 f9 bc a6 cb a9 3d 0f 6c bf bd 01 7a 7b bb
       -0.030506777 0.08290796 -0.093467824 -0.003837228
000290 f4 fb 3b 3d 9c 76 de 3c 02 34 db 3d 4e 95 6c 3d
       0.045894578 0.027156167 0.10703279 0.057759576
0002a0 9e a3 f2 bb 58 e8 51 3d 23 77 75 b9 e5 8e d5 3b
       -0.0074047586 0.05124697 -0.00023409403 0.0065172785
0002b0 72 54 4b 3d 0e 3f 00 bd 85 6f aa 3c 5c 8d 62 3c
       0.04964108 -0.031310134 0.02080513 0.013827648
0002c0 85 d3 5b 3c 2e a1 1c bd ff a7 63 bb 86 c6 6c 3c
       0.013417129 -0.03823965 -0.0034737585 0.014451629
0002d0 d9 ff 7c b8 ae f7 8d 3d 68 a6 83 3d bb 0f 12 bd
       -6.031976e-05 0.06932007 0.06428224 -0.035659533
0002e0 cb 22 66 bd 6e 4b d7 bc 76 ae 2f bd 71 7d a6 bd
       -0.056185525 -0.026281085 -0.04289099 -0.08129395
0002f0 10 e9 18 3c ea 46 98 3d b5 80 b3 bd 59 5b 5d 3d
       0.00933291 0.07435401 -0.08764783 0.054042194
000300 70 24 7e 3c de a0 0b bd 4f b9 2d bd 41 ee 2a bd
       0.015511617 -0.03408896 -0.042413052 -0.041731123
000310 d2 f2 79 3d 3e 6a e9 bc a9 fd c3 bd ef 5f ec bc
       0.061022587 -0.028493043 -0.09569866 -0.028854338
000320 a8 d6 0c bd 9a ad d4 bd 92 91 9f 3d 4b 4a 8c 3d
       -0.0343844 -0.10384674 0.07791437 0.06850108
000330 8c 5f 12 3d c4 d0 11 bd 77 39 f3 3c ed 12 2a bd
       0.03573565 -0.035599485 0.029690487 -0.041521955
000340 ff 49 ea 3c 74 ba 1f 3b 79 d2 03 bd b8 79 5b 3d
       0.028599737 0.002437261 -0.032183144 0.053582877
000350 17 b9 87 3c 3f e9 b0 3c a9 34 cb 3c 08 78 2d bc
       0.01656775 0.021595595 0.024805384 -0.0105877
000360 10 49 75 bc 1f 70 28 3c b9 07 26 bc 0e 55 94 bd
       -0.014971033 0.010280638 -0.010133677 -0.072427854
000370 ce c0 49 3d 63 a1 c2 bd f9 42 a8 bd 75 e5 7a bd
       0.04925614 -0.09503438 -0.08215899 -0.061253984
000380 f2 db 80 3c 67 e0 51 bd c3 fb 4a bd e2 1c ea 3c
       0.015729878 -0.051239397 -0.049556505 0.028578226
000390 e2 5c 5a bd 7f 80 b8 bd 27 63 db bd ad ff 9d bd
       -0.053311236 -0.09008884 -0.10712271 -0.07714782
0003a0 32 5e 8e bd 4a 9c 8e 3d 85 de 4a 3b 7c 05 8e bc
       -0.0695156 0.069634035 0.0030955386 -0.0173366
0003b0 02 f1 89 3c b1 17 39 3d 67 b6 2e 38 6f ba bb ba
       0.016838554 0.04518861 4.165471e-05 -0.0014322529
0003c0 87 51 86 bc 58 57 77 3d 0b 02 4e 3d 60 84 e3 3c
       -0.016396297 0.060386032 0.050294917 0.027773082
0003d0 4f 78 0f 3d 29 47 ad bb a3 43 40 bd f7 b9 9a bd
       0.035026845 -0.005288024 -0.046939503 -0.07555001
0003e0 3b 43 b9 bd 5e a1 a4 bd d0 5e 4a bc 19 e7 86 3d
       -0.09046026 -0.08038591 -0.012351707 0.06587047
0003f0 d1 c2 49 3d 1d f6 ea 3c 0d b5 78 bd ce 30 14 bd
       0.049258057 0.02868181 -0.06071954 -0.036179356

net.2.bias f4 [128]
000000 29 80 96 3c 85 7a 81 3b 9c 05 7d 3d 8c f8 34 bc
       0.018371658 0.003951373 0.061772928 -0.011045586
000010 ef 0b 50 bd 85 16 63 3d ab 8a a3 3b c2 81 ec 3c
       -0.05079263 0.0554414 0.0049908957 0.028870467
000020 f9 d6 39 bc 60 ff 75 3d 46 9d 68 3d 24 e0 7b bc
       -0.011342757 0.060057998 0.056790613 -0.0153732635
000030 9a 30 26 bd f5 aa 2d 3d c9 f1 ef 3a 3c 81 13 3d
       -0.040573694 0.042399365 0.001830631 0.03601192
000040 b3 76 2a 3d 5b 54 91 3d 42 60 55 bd e1 56 b4 bd
       0.041617107 0.07096168 -0.05209375 -0.08805633
000050 2f 31 04 3b 01 c6 b4 bd 31 50 0c bb 3c 42 4a bd
       0.0020170917 -0.08826829 -0.0021410102 -0.049379572
000060 27 a6 7a bd d4 78 b4 3d 0f bf 9d bc 54 00 a3 bd
       -0.06119361 0.08812109 -0.019256143 -0.07959047
000070 26 c2 75 3d 17 70 83 3c 83 93 d1 bc 32 9a 34 bc
       0.059999608 0.01604466 -0.025583034 -0.011023091
000080 d1 2f 8a 3d 5c 77 96 bc 77 73 05 bc 08 48 2c 3d
       0.067474015 -0.018367462 -0.008145205 0.04206088
000090 11 e8 3b ba dc 86 06 3d f0 43 9e 3c 31 03 4c bd
       -0.00071680645 0.032843456 0.019319504 -0.04980773
0000a0 37 0b 02 bc dd 81 75 bd b2 99 19 bd 56 34 19 3d
       -0.007937244 -0.0599383 -0.03750009 0.037403427
0000b0 8f 03 95 3d 44 20 7a bd e3 b5 8c 3d cc ad 86 bc
       0.072760694 -0.061065927 0.0687063 -0.016440295
0000c0 4e d4 8b bd 75 48 7c 3d ee 1a 8d 3d a1 c5 0b 3d
       -0.06827603 0.061592538 0.06889902 0.03412402
0000d0 0c 40 0c 3c d4 4e 82 bd 5f 30 c1 3c 06 eb 93 bd
       0.008560192 -0.063626915 0.023582635 -0.072225615
0000e0 13 78 ff bc 13 b4 87 bd 39 33 9c 3d 8e 4b c0 3c
       -0.031185186 -0.06626143 0.076269574 0.023473527
0000f0 e0 00 57 bd 37 bf 02 3d 5a 3a 6b bd 6a b6 3f bd
       -0.05249107 0.031920638 -0.057428695 -0.046804823
000100 d9 b8 69 3d c3 32 e0 3b d8 f9 24 bd ea 62 95 3d
       0.05706105 0.006841989 -0.040277332 0.07294257
000110 c2 bc a6 bd ab 16 59 3d a8 0e 98 3d 86 c6 12 3d
       -0.081414714 0.053000133 0.074246705 0.035833858
000120 30 20 16 3a 17 05 55 3d b9 96 5b bd fc 4e 9b bd
       0.0005726842 0.052006807 -0.053610537 -0.075834244
000130 5b f5 a6 bd 9d 56 b3 bd 6a 08 c5 bd 05 cd 0a 3c
       -0.081522666 -0.087567545 -0.096207455 0.008471732
000140 c0 96 6e 3a e9 40 97 3d 71 8e 4c 3d 1d 12 10 3d
       0.0009101443 0.073854275 0.04994053 0.035173524
000150 53 c8 c1 3d a9 05 88 3d d9 cf b8 bd 66 fb ef 3c
       0.09462037 0.066417046 -0.09024019 0.02929468
000160 b0 65 41 3d 73 d9 b3 3c d1 e4 6c 3d 32 0b b0 bd
       0.047216117 0.021954274 0.057835404 -0.08595885
000170 ef 23 72 bd 52 53 a0 bd e9 8a 00 3d 58 c7 27 3d
       -0.0591163 -0.07828392 0.031382475 0.040961593
000180 b7 57 00 bd 74 14 19 3c 25 d0 a4 3d c1 a5 14 3d
       -0.03133365 0.009343255 0.08047513 0.036290888
000190 99 1e 31 3d b2 bf 86 bc d9 d5 60 3d ff 79 b8 3d
       0.04324207 -0.01644883 0.05489144 0.09007644
0001a0 9c 77 27 3b ce a9 66 3d 07 0f ab 3d 4f 37 77 3c
       0.002555347 0.056314282 0.083524756 0.01508887
0001b0 36 43 17 bd 37 96 71 bc 3a 08 8d 3d 16 83 16 3d
       -0.03692933 -0.014745287 0.06886335 0.036746107
0001c0 b4 23 bb bd 47 f0 1b bd 7e 1b 23 bc a0 17 6b bd
       -0.09137669 -0.038070943 -0.009955285 -0.057395577
0001d0 9d 57 c4 bc cb c2 d8 3c f3 24 9f 3d c3 23 08 3c
       -0.023967559 0.026460072 0.077707194 0.0083093075
0001e0 4b e8 7b 3b 02 ab 82 bd 05 b7 8b 3d 30 60 5a 3d
       0.0038438018 -0.063802734 0.068220176 0.053314388
0001f0 a7 40 b9 bd 11 2c ce bd 65 d3 bc bd 00 c5 7d 3d
       -0.090455346 -0.10066999 -0.09220008 0.061955452

net.4.weight f4 [3, 128]
000000 9d b5 a3 3d bd 67 68 3d e6 97 67 bd aa e1 53 3d
       0.07993624 0.056739558 -0.056541346 0.051728882
000010 64 1d 64 3d a5 12 23 3d cc c7 f5 3b 11 ec cf bd
       0.05569209 0.039812703 0.0075006243 -0.10152448
000020 3d ee 97 bc 51 6d 3b 3d ec ad 40 bd 84 a0 86 3d
       -0.018546218 0.04575855 -0.047040865 0.06573585
000030 a7 b2 49 3d d0 c6 23 3d 81 8f 6e bd 18 dd 65 bd
       0.04924264 0.039984524 -0.058242325 -0.056119055
000040 ba 67 7a bd ea ee 84 bd 8f 76 b8 3d 98 df 4f bd
       -0.061134078 -0.06490882 0.09006988 -0.050750345
000050 e4 33 0e bd f6 a6 4f 3c 7c 3d fe 3c cd 46 1d 3c
       -0.034717456 0.012674084 0.031035177 0.0095994
000060 57 3b d5 bd d0 e4 5d bc 47 64 51 bd d3 0a 9b 3c
       -0.10411709 -0.013543323 -0.051121023 0.01892606
000070 3d 48 e4 bd a2 d5 a0 bd 7a d0 08 3c c4 a4 2b bd
       -0.11146591 -0.07853247 0.008350486 -0.04190518
000080 22 82 2b 3d 65 f9 62 3d ae a7 b2 3d d1 a4 62 bd
       0.04187215 0.055413622 0.087233886 -0.055332962
000090 c0 fe 5b 3d f5 ce d2 bc 89 2b a6 bb 84 f3 9e 3b
       0.053709745 -0.02573345 -0.0050711078 0.0048508067
0000a0 f6 5d 9c 3d e0 af 88 bd a1 9f bf 3c f5 ea dc 3d
       0.07635109 -0.066741705 0.023391547 0.10787002
0000b0 0e c1 b3 3c ef 26 29 bd 37 94 11 bd 84 0e e2 bc
       0.021942642 -0.041296896 -0.03554174 -0.027594812
0000c0 ae d3 4b bd 96 f2 95 3b eb 8e 3b 3c a6 d6 12 3b
       -0.04976242 0.0045760376 0.0114476485 0.0022405772
0000d0 ab cd 81 3d fe 19 5a bd 64 c6 92 bb d3 d1 9e bd
       0.06338056 -0.053247444 -0.0044792164 -0.077548645
0000e0 46 da 08 3d 46 f7 1a 3d 23 1a 44 3d e4 11 71 bc
       0.033411287 0.037833475 0.04787649 -0.014713738
0000f0 36 f3 90 bd 1b 39 1a 3d 06 6b 9f bd 82 46 38 3d
       -0.07077639 0.037652116 -0.07784085 0.044989116
000100 94 c1 cd 3d 75 65 1f 3d 1b 5e 04 3d 1f 9c 49 3b
       0.10046688 0.038915116 0.03231631 0.0030763221
000110 a2 91 57 bd 6a bb b9 bc bd fc 9a 3c 47 29 71 bd
       -0.05262912 -0.022672374 0.018919343 -0.058877256
000120 14 07 7f bd 0b d1 3e 3b d9 66 a1 3d 75 b1 c3 bc
       -0.06226261 0.0029116299 0.07880945 -0.023888329
000130 00 2f e4 3c 2e f2 29 3d 74 74 28 3d f9 99 8e bc
       0.027854443 0.041490726 0.041126683 -0.017407404
000140 77 af ef bc ac 2f 01 3c a2 0f 56 3d 71 81 9c 3d
       -0.029258473 0.007884901 0.052261002 0.076418765
000150 53 60 c3 bc ca 89 07 bc 64 04 45 bd 71 0a 74 3d
       -0.023849642 -0.008272598 -0.04809989 0.05958027
000160 21 b1 53 bc 03 ea 4b 3d 6b 09 0f 3d 86 67 12 3d
       -0.012920649 0.049783718 0.03492109 0.03574326
000170 5f 12 af bc 49 43 62 3d ca 60 ee 3b b3 a6 20 bc
       -0.021371065 0.05523995 0.0072747217 -0.009805369
000180 32 26 63 bd 18 8b 60 3b 7f c3 ed bc ad fc 47 3c
       -0.055456348 0.0034262594 -0.029023884 0.012206239
000190 07 44 07 bd 0e 1f ab 3d 93 5c 9e 3c b6 aa f3 3b
       -0.03302386 0.083555326 0.019331252 0.007436122
0001a0 f4 3e 25 3d 64 70 c5 bc 6d 99 b2 bd cf 2d 52 bd
       0.04034324 -0.024101444 -0.0872067 -0.051313218
0001b0 13 5d a1 3d ed a7 ac 3d be b4 ba 3c c0 ef ab 3c
       0.078790806 0.08430467 0.022791263 0.020988345
0001c0 3c 4c 90 bd 88 76 92 3d b3 73 98 3d 66 6c 70 39
       -0.070457906 0.07151514 0.07443943 0.00022928565
0001d0 96 20 02 bd 69 56 aa 3d 52 35 d6 bc d7 81 06 3c
       -0.031769358 0.08317263 -0.026148472 0.008209667
0001e0 91 40 cb bc 0f e3 63 3d 73 33 ca 3a 91 ad 1d bd
       -0.024811061 0.05563646 0.001542671 -0.038495604
0001f0 80 42 61 3d db 1b 7e bc 38 1c 4a 3d a9 88 75 bb
       0.05499506 -0.015509571 0.049343318 -0.003746549
000200 a4 d2 25 bc d3 7c 9f bc 1e f5 29 bd be ed 15 bd
       -0.010121021 -0.0194687 -0.041493528 -0.03660368
000210 0e b8 58 3d cc 94 92 3c 3b f4 c3 3c 46 81 01 bd
       0.052909903 0.017893218 0.02392017 -0.031617425
000220 c6 21 57 3d 2f 55 0a bd 63 64 02 3c 20 7c 74 bd
       0.052522443 -0.033772644 0.007958504 -0.059688687
000230 ff b4 8d bd 62 ff 8d 3d 41 f0 a3 3c 5f 72 76 3d
       -0.06919288 0.06933476 0.020012023 0.060167667
000240 46 05 fb bc d7 d1 1b 3d 39 47 0e 3d c6 db 92 3b
       -0.030642163 0.038041916 0.034735892 0.0044817654
000250 0d 07 36 3d bf ed a9 bc 01 c1 9e 3c 59 d7 62 3d
       0.044440318 -0.020743249 0.01937914 0.055381153
000260 b1 0a 2d 3d f3 3a 6c 3d 9f c1 70 bd 72 55 39 bd
       0.042246524 0.057673406 -0.0587784 -0.045247503
000270 73 73 bb 3c dc 24 ff bc 40 96 c5 bc d3 cb 52 3d
       0.022882199 -0.031145506 -0.024119496 0.051463913
000280 61 f4 38 3c 5b 3a 96 3d 11 89 27 bd 6b 5e 1c 3d
       0.011288733 0.07335349 -0.0409022 0.03817598
000290 6d 88 40 3d 88 ac cb 3c 73 27 32 bd 91 8b 93 bd
       0.047005106 0.024862543 -0.043494653 -0.072043546
0002a0 f9 e5 9f bd 49 61 ff bc c8 9a 23 bd 44 8c 01 bd
       -0.07807536 -0.031174319 -0.039942533 -0.03162791
0002b0 ad 88 a2 bd 90 25 9e 3c 70 3f 63 3d 70 0b 0d bd
       -0.07936225 0.01930502 0.05548042 -0.034434736
0002c0 43 c8 5c 3c b2 a0 12 bc 84 f8 b4 3c be 3f 2a bd
       0.0134754805 -0.008949446 0.022091158 -0.041564696
0002d0 5b c7 7d bd 75 20 95 3d 69 b8 0f bd d7 86 33 bd
       -0.0619577 0.07281581 -0.035087977 -0.043829765
0002e0 fe b1 b0 3c 06 7c 0b bc 0b 33 58 3d e7 c6 b5 bd
       0.021569248 -0.008513456 0.052783053 -0.08875828
0002f0 9b d8 b1 3d b8 9e 4e bd 9d 81 b0 3d 68 91 46 3d
       0.08683892 -0.050444335 0.08618472 0.048478514
000300 1a 28 fa 3c cc 40 8e bd 14 0d 85 3d b9 b2 be 3b
       0.0305367 -0.06945953 0.06496635 0.0058196452
000310 d6 7a 9a bd 7a c6 7c bd ac a3 25 3d d5 77 3f 3d
       -0.0754296 -0.06171272 0.040439293 0.04674514
000320 a7 68 a9 bd 5e 2d a0 3d c8 14 83 bd 04 9b a7 bd
       -0.08271914 0.07821153 -0.06400448 -0.08183864
000330 fd 0e a2 3d d6 a6 17 bd 06 94 8f ba a6 48 d8 3c
       0.07913015 -0.03702434 -0.0010954149 0.026401829
000340 33 2f 45 3d 1c ee b5 3d bc 8d d4 3c f9 9f 4e bd
       0.048140716 0.088833064 0.02594649 -0.05044553
000350 30 cd 34 3d 6d 5d 4d 3d 4d 4c ac 3d 6e b8 66 bd
       0.044140995 0.050137926 0.08412991 -0.05632823
000360 22 49 66 3d ae 36 a2 bb 24 8a f2 3c 6f 06 78 3b
       0.05622209 -0.004950366 0.029606886 0.0037845632
000370 2c ef 07 3d c4 b9 6b 3d fa 70 2e 3d 0a 16 c6 bc
       0.033187076 0.057550207 0.04258821 -0.02418043
000380 72 6f c1 bc 20 71 a0 3d 8e fe 82 3d 99 5b ab bd
       -0.023612712 0.07834077 0.06396209 -0.0836708
000390 0f ec 55 bd de b6 92 bd 1e 23 3a bd e8 16 60 3c
       -0.052227076 -0.071637854 -0.045443647 0.013677336
0003a0 ac c3 ce 39 3d 12 f5 bc a1 27 b8 3d fd 71 87 3d
       0.0003943717 -0.029915923 0.089919336 0.066135384
0003b0 53 bc 0b bd aa 60 8f 3d e3 bc 8e bd 71 dd 90 3b
       -0.034115147 0.07000859 -0.06969621 0.004420929
0003c0 ac 90 24 bd d7 66 b5 3c 45 f7 2d 3d 3b f5 15 bd
       -0.040177032 0.022143764 0.042472143 -0.036610823
0003d0 d1 c3 94 bb af 1a 43 bc d6 1e 6d bd 60 3c 49 3d
       -0.0045399447 -0.011908217 -0.057890736 0.049129844
0003e0 d4 6b af 3c c0 f5 95 3d 20 87 70 3c 8e aa 95 bd
       0.021413721 0.07322264 0.014680654 -0.07307921
0003f0 05 fe a3 3c e1 0a 8f 3b 5f 3a 50 bd 91 2a 4c bc
       0.020018587 0.0043653105 -0.050836917 -0.0124613205

net.4.bias f4 [3]
000000 1f 47 43 3d 75 44 87 bd e5 92 44 bd
       0.04767525 -0.06604854 -0.047991652
