dqn_model.pt (torch, 54769 bytes, 4 tensors)

net.1.weight f4 [64, 200]
0.06942309 -0.008160458 -0.003394722 -0.078449905 0.06275406 0.06237799 -0.07321231 -0.06391795
-0.055361398 0.026944073 -0.008726325 -0.032386925 -0.044750508 -0.025533225 0.046455607 0.0022275688
-0.083318114 0.05672516 0.023717174 0.06436831 0.01878793 0.0042617517 0.03697529 -0.032586403
-0.01739631 -0.0011514397 -0.099649705 0.034857202 -0.04293619 0.049477845 0.05719819 -0.03268068
-0.021937087 -0.041323405 -0.03258026 -0.07730519 0.04277674 -0.0335026 -0.003911038 0.05150462
-0.015192187 -0.05871311 -0.013399708 -0.08947676 0.06574227 -0.09691241 -0.015985457 0.05375317
-0.026119096 -0.02326945 0.040681392 -0.041392792 -0.016026426 -0.05178444 0.00934154 0.0270427
-0.041274652 -0.041257903 0.06360704 0.030456372 -0.025360294 -0.028351521 0.03530793 0.054768093
0.015690867 0.047617678 -0.047783513 0.025047544 -0.007479686 -0.046417106 0.017306827 -0.015743982
0.007838108 -0.04496499 -0.057317767 1.0433061e-05 -0.06272288 0.013307721 -0.075122125 -5.4017954e-05
-0.0823559 -0.0100810155 -0.0187941 0.00013676852 0.028457252 -0.044369083 -0.07689078 -0.014495833
-0.04842837 0.037594393 -0.049503997 -0.019907562 -0.053186826 -0.077908255 0.05543442 -0.012572668
0.035060525 0.05585308 -0.02811355 -0.0775698 -0.0067913234 0.0018526184 -0.029787645 -0.030718727
-0.007486769 -0.04616261 -0.018128399 0.05629797 -0.036601305 -0.06124061 -0.064587004 0.009380882
0.04737165 -0.0075078704 -0.042907756 -0.053880706 -0.05812027 -0.030275779 -0.0232585 -0.016440183
-0.059328172 0.05292751 -0.019691661 0.039385468 0.042008244 0.02990805 -0.052560825 -0.017986799
0.037254717 -0.047531012 -0.037789382 0.041166656 0.01981422 -0.049661785 0.007861504 0.069659665
0.040674 -0.043209184 -0.018962797 0.05778182 0.06996028 -0.07396237 -0.012075006 -0.0059646927
-0.05223463 -0.042780664 0.032504972 0.057194557 -0.0012988918 0.022384852 -0.008427167 -0.021307768
0.04437515 -0.015267969 0.05767206 -0.06902196 -0.02545977 -0.028250441 -0.035509706 0.029342785
-0.015857358 0.02506926 0.05682251 -0.008018795 -0.03596044 -0.044327397 -0.047642134 0.025127532
0.00013333368 -5.3162563e-05 -0.041216772 0.011704436 -0.041733243 0.05903006 -0.0043332945 0.045192134
0.01760068 0.056452546 -0.059475955 -0.05254068 0.020200457 0.07715197 0.0121710235 0.042095464
0.0015025574 0.02988966 0.024992608 -0.044154953 0.058822256 0.061866384 -0.05384129 0.048903506
-0.011466308 -0.04345006 0.010008896 -0.046521295 -0.004690213 -0.07055149 0.062983714 -0.03384782
0.059307 7.854469e-05 -0.039817393 -0.017701346 -0.07619709 0.026162859 -0.064096816 -0.03722219
-0.025870781 -0.045878235 -0.0007868677 -0.0077976584 -0.028849423 0.045230255 -0.047225684 0.006210107
-0.075810514 0.061086923 0.04541213 0.03945349 -0.019847542 0.012056985 -0.015294112 -0.045664474
-0.0275222 -0.027087033 -0.02160639 0.05177094 0.035766132 -0.073657125 -0.043205947 -0.011940853
0.0140327625 -0.061432265 -0.023522744 -0.05285605 -0.048610896 -0.05205669 0.047432818 0.054021552
0.05587563 -0.022413287 -0.033426687 0.05979553 0.011313448 -0.011265881 -0.01917314 0.011297339
-0.047713835 -0.033922832 -0.07429481 -0.020473698 -0.027342167 0.050017703 0.013824652 0.023587758
00000000: b12d 8e3d 71b3 05bc fc79 5ebb 58aa a0bd
00000010: 3385 803d 1080 7f3d 56f0 95bd 6ae7 82bd
00000020: a2c2 62bd d1b9 dc3c dcf8 0ebc 27a8 04bd
00000030: 4f4c 37bd 0e2b d1bc 3c48 3e3d 67fc 113b
00000040: b0a2 aabd a458 683d 854a c23c 88d3 833d
00000050: 25e9 993c 2aa6 8b3b 6773 173d 5279 05bd
00000060: b582 8ebc e8eb 96ba 2515 ccbd 6dc6 0e3d
00000070: dcdd 2fbd 48a9 4a3d a648 6a3d 2ddc 05bd
00000080: 68b5 b3bc bb42 29bd e172 05bd 2f52 9ebd
00000090: aa36 2f3d 063a 09bd 2a28 80bb 82f6 523d
000000a0: a7e8 78bc 287d 70bd 738a 5bbc 973f b7bd
000000b0: e2a3 863d 037a c6bd eff3 82bc 492c 5c3d
000000c0: b7f7 d5bc 939f bebc 88a1 263d 7d8b 29bd
000000d0: da49 83bc ec1b 54bd 420d 193c a788 dd3c
000000e0: 9c0f 29bd 0cfe 28bd 6844 823d a47f f93c
000000f0: 64c0 cfbc 7341 e8bc 0c9f 103d 8254 603d
00000100: 228a 803c c10a 433d a5b8 43bd 8230 cd3c
00000110: 2718 f5bb dd1f 3ebd 0cc7 8d3c 86f9 80bc
00000120: 686b 003c 362d 38bd 09c6 6abd a809 2f37
00000130: da74 80bd a108 5a3c a1d9 99bd 5691 62b8
00000140: 36aa a8bd d82a 25bc 16f6 99bc 8569 0f39
00000150: 2f1f e93c 5bbc 35bd ea78 9dbd ee7f 6dbc
00000160: d45c 46bd 94fc 193d b4c4 4abd 2f15 a3bc
00000170: 6eda 59bd 5d8e 9fbd 340f 633d 97fd 4dbc
00000180: a09b 0f3d 33c6 643d 634e e6bc eadc 9ebd
00000190: c089 debb 8fd3 f23a 3805 f4bc d7a5 fbbc
000001a0: 9253 f5bb 0115 3dbd 0282 94bc b398 663d
000001b0: 40eb 15bd 6fd7 7abd 3146 84bd 45b2 193c
000001c0: c608 423d 9504 f6bb 0bc0 2fbd 04b2 5cbd
000001d0: 850f 6ebd e904 f8bc 9c88 bebc 90ad 86bc
000001e0: 1902 73bd 84ca 583d 6850 a1bc a852 213d
000001f0: d610 2c3d ba01 f53c 054a 57bd 0d59 93bc
00000200: 6798 183d e1af 42bd 0ac9 1abd 5e9e 283d
00000210: 6e51 a23c 286a 4bbd 8acd 003c baa9 8e3d
00000220: c899 263d 1dfc 30bd de57 9bbc a1ac 6c3d
00000230: 5647 8f3d 9579 97bd 3fd6 45bc 7873 c3bb
00000240: fbf3 55bd c73a 2fbd ef23 053d d744 6a3d
00000250: 943f aaba 7060 b73c 1a12 0abc a18d aebc
00000260: b8c2 353d 8126 7abc 8a39 6c3d 635b 8dbd
00000270: 0291 d0bc 786d e7bc a072 11bd 4860 f03c
00000280: 4ae7 81bc 0c5e cd3c b8be 683d 4461 03bc
00000290: 414b 13bd a590 35bd 6624 43bd 41d8 cd3c
000002a0: 7dcf 0b39 defa 5eb8 ebd2 28bd f6c3 3f3c
000002b0: 7af0 2abd 81c9 713d 4ffe 8dbb 631b 393d
000002c0: 4d2f 903c c93a 673d 0f9d 73bd e534 57bd
000002d0: 6e7b a53c da01 9e3d f968 473c 4b6c 2c3d
000002e0: 76f1 c43a 29db f43c 4cbd cc3c d3db 34bd
000002f0: 9bef 703d 9b67 7d3d af88 5cbd 0b4f 483d
00000300: 2edd 3bbc b1f8 31bd 5afc 233c 1d8d 3ebd
00000310: 5cb0 99bb 4d7d 90bd 9bfd 803d 03a4 0abd
00000320: e6eb 723d 5cb8 a438 9017 23bd 6a02 91bc
00000330: 380d 9cbd 7e53 d63c 3145 83bd 4c76 18bd
00000340: f6ee d3bc d1ea 3bbd cc45 4eba 8083 ffbb
00000350: a055 ecbc 5c43 393d b86f 41bd 277e cb3b
00000360: 8b42 9bbd 4836 7a3d 1202 3a3d fc99 213d
00000370: 5097 a2bc a98a 453c 2894 7abc ac0a 3bbd
00000380: 3d76 e1bc a0e5 ddbc e2ff b0bc c40d 543d
00000390: 827f 123d 8cd9 96bd b8f8 30bd 91a3 43bc
000003a0: ace9 653c 66a0 7bbd c5b2 c0bc 967f 58bd
000003b0: 381c 47bd 6539 55bd ea48 423d b445 5d3d
000003c0: d8dd 643d 129c b7bc 6cea 08bd 28ec 743d
000003d0: 0a5c 393c 8894 38bc fd10 9dbc 7918 393c
000003e0: 956f 43bd abf2 0abd e127 98bd 75b8 a7bc
000003f0: aefc dfbc 5ddf 4c3d cb80 623c 1d3b c13c

net.1.bias f4 [64]
-0.06595129 0.062916435 -0.015304848 0.08111373 -0.118841946 0.08638502 -0.059236705 0.003427187
-0.12094828 0.013755841 0.017642405 0.003337413 0.02126453 -0.05590469 0.04765871 -0.046029016
0.10055478 -0.08871151 -0.09389026 -0.12000758 -0.045969445 -0.044716682 -0.019619945 0.07097355
0.045847822 -0.07991292 -0.020230064 -0.040518418 -0.12122647 0.03247643 -0.08359959 0.042465106
0.045629125 0.056190375 0.038218383 0.03863903 -0.053093612 -0.025619298 -0.044443946 -0.0050237793
0.03914109 -0.002721566 0.008809831 0.044840027 0.006072359 0.03635279 0.010555349 -0.020233663
0.06066144 0.095937364 0.02602307 -0.016934393 0.01656229 -0.011291332 -0.006363078 -0.02681125
-0.12125951 -0.026521185 -0.08222019 -0.06435208 -0.12633233 -0.07604562 -0.001431822 0.037043493
00000000: 7811 87bd 55da 803d 2fc1 7abc f51e a63d
00000010: 6863 f3bd a1ea b03d 30a2 72bd a89a 603b
00000020: bbb3 f7bd 2e60 613c ce86 903c 80b8 5a3b
00000030: f432 ae3c 51fc 64bd c835 433d ec88 3cbd
00000040: aaef cd3d 61ae b5bd 8949 c0bd 89c6 f5bd
00000050: 754a 3cbd d728 37bd 02ba a0bc 955a 913d
00000060: edca 3b3d 63a9 a3bd 85b9 a5bc a4f6 25bd
00000070: 9545 f8bd 0106 053d 4336 abbd e4ef 2d3d
00000080: 9be5 3a3d e127 663d e18a 1c3d f643 1e3d
00000090: b078 59bd 90df d1bc db0a 36bd 849e a4bb
000000a0: 6852 203d 4d5c 32bb 1c57 103c 2daa 373d
000000b0: a4fa c63b aae6 143d 58f0 2c3c 11c1 a5bc
000000c0: 2178 783d cf7a c43d 552e d53c ffb9 8abc
000000d0: a4ad 873c 47ff 38bc 5e81 d0bb 44a3 dbbc
000000e0: e856 f8bd f542 d9bc 0f63 a8bd 06cb 83bd
000000f0: 435d 01be cebd 9bbd f9ab bbba ebba 173d

net.3.weight f4 [3, 64]
-0.03852693 -0.0048759133 0.0071750423 -0.049293727 0.034391083 -0.033953227 0.021254512 -0.014534502
0.03370446 -0.089948274 -0.009067405 -0.0049845753 0.024641456 -0.07393938 -0.10160242 0.025950963
-0.0019672373 0.026172675 -0.012726113 0.044136297 -0.0032699662 0.026246121 0.064673185 -0.041755285
-0.021168688 0.055995855 0.0026135482 -0.02411447 -0.0028892623 0.007543921 -0.0045591933 -0.014107405
0.0017122367 -0.02501578 -0.02495988 0.094600715 0.0074053877 -0.052155733 0.025823008 -0.032851305
-0.113826126 -0.00026577635 -0.047661554 0.09358515 0.0736236 -0.00705153 -0.09096852 0.0014000833
0.046715334 -0.03837599 -0.00060850184 0.04523448 -0.09538242 0.0032422722 0.00017119612 0.10585296
0.039694127 0.0870173 -0.047173556 0.008395067 0.015799329 -0.085683376 0.0028493972 -0.026731906
-0.12244955 0.03760426 -0.0025050158 -0.04943532 0.03512016 -0.034001157 0.021344783 -0.013799661
0.034061007 -0.08156852 0.019135155 -0.0010484655 0.024507295 -0.09102777 -0.04683298 0.025750056
0.00049492065 0.026651384 -0.006764978 0.043824557 -0.0014755704 0.025486639 -0.10752873 -0.040097922
-0.0210387 0.05648895 -0.0023602194 -0.023563823 0.016663888 0.0059865774 -0.001075244 0.0012475767
-0.011299588 -0.025933102 -0.025934339 -0.06323286 0.0011958196 -0.07776657 0.025515985 0.06623285
-0.024762856 0.0016028809 -0.04826409 -0.0010788062 0.07349294 0.056068506 -0.048129927 -0.014398312
-0.11613722 -0.038228787 0.027559448 0.04543621 -0.07038112 0.0032659746 0.00081762444 0.044426583
0.03964854 -0.017590977 -0.047457922 -0.005741165 0.0011274897 -0.09817998 -0.0048501557 -0.027148988
0.059716847 -0.044445958 0.0100069735 -0.049463943 0.03550016 -0.033545103 0.020993026 -0.0016387871
0.033359986 -0.006073797 0.010045126 0.0018868028 0.023631183 -0.035170477 -0.10107614 0.02548508
0.00051422947 0.02736877 -0.0030961377 0.044161275 -0.00747531 0.024433244 -0.10840269 -0.04085204
-0.021295767 0.05606558 0.0016853665 -0.0236547 0.0063634794 0.007491089 0.003257411 -0.010060449
0.00021926299 -0.025055856 -0.026414335 0.020859785 0.003824739 -0.027526647 0.026296383 0.08183346
0.10901004 0.0042876275 -0.04844418 -0.002516389 0.07361292 -0.020339629 0.06666745 -0.11349717
0.10461934 -0.038629767 0.011009102 0.045456905 0.09090573 0.0010049207 0.0018047832 0.08992086
0.040347826 -0.052293546 -0.04776421 0.019471826 0.009047276 0.07738586 0.00018627403 -0.026503595
00000000: 6ace 1dbd 20c6 9fbb 9e1c eb3b 38e8 49bd
00000010: aadd 0c3d 8a12 0bbd f11d ae3c 1f22 6ebc
00000020: b00d 0a3d cd36 b8bd 748f 14bc a655 a3bb
00000030: e1dc c93c 886d 97bd ee14 d0bd 1d97 d43c
00000040: c4ec 00bb 1468 d63c 3081 50bc 43c8 343d
00000050: ee4c 56bb 1b02 d73c 6073 843d 9707 2bbd
00000060: f569 adbc e95b 653d 1048 2b3b b68b c5bc
00000070: c759 3dbb ff32 f73b 4965 95bb bf22 67bc
00000080: 216d e03a e5ed ccbc aa78 ccbc 05be c13d
00000090: e5a8 f23b 40a1 55bd c68a d33c 178f 06bd
000000a0: ac1d e9bd e657 8bb9 c338 43bd 92a9 bf3d
000000b0: f8c7 963d 8510 e7bb b44d babd 0083 b73a
000000c0: 9458 3f3d 2430 1dbd de83 1fba ca47 393d
000000d0: dc57 c3bd 4d7c 543b 1c83 3339 70c9 d83d
000000e0: 4f96 223d 2036 b23d 0f39 41bd 778b 093c
000000f0: 986d 813c c47a afbd f4bc 3a3b dffc dabc
00000100: d4c6 fabd ed06 1a3d 312b 24bb b17c 4abd
00000110: 28da 0f3d cc44 0bbd 41db ae3c f917 62bc
00000120: 8e83 0b3d 650d a7bd 54c1 9c3c aa6c 89ba
00000130: 86c3 c83c c46c babd f0d3 3fbd c8f1 d23c
00000140: 90bd 013a 0154 da3c c0ac ddbb 6181 333d
00000150: ed67 c1ba 5bc9 d03c 0638 dcbd b83d 24bd
00000160: 5a59 acbc f560 673d e9ad 1abb eb08 c1bc
00000170: b582 883c 0d2b c43b 34ef 8cba ba85 a33a
00000180: e821 39bc a871 d4bc 4074 d4bc 3b80 81bd
00000190: 0cbd 9c3a 1444 9fbd e606 d13c 17a5 873d
000001a0: 79db cabc c217 d23a 91b0 45bd bb66 8dba
000001b0: 7783 963d 17a8 653d e323 45bd e6e6 6bbc
000001c0: 5ad9 edbd ca95 1cbd 5ac4 e13c 521b 3a3d
000001d0: fa23 90bd f609 563b d955 563a a6f8 353d
000001e0: 8266 223d f41a 90bc 3d63 42bd 6220 bcbb
000001f0: 47c8 933a 9612 c9bd 0eee 9ebb 8e67 debc
00000200: a799 743d f70c 36bd 4af4 233c b49a 4abd
00000210: 9e68 113d 9766 09bd 91f9 ab3c 92cc d6ba
00000220: 7ba4 083d b406 c7bb 5094 243c 994e f73a
00000230: 2f96 c13c eb0e 10bd 0201 cfbd 16c6 d03c
00000240: 5bcd 063a 7934 e03c 92e8 4abb 74e2 343d
00000250: 72f3 f4bb 3a28 c83c 3b02 debd 7854 27bd
00000260: 7674 aebc 06a5 653d 84e7 dc3a 80c7 c1bc
00000270: bc84 d03b cf77 f53b 4a7a 553b 95d4 24bc
00000280: f6e9 6539 f041 cdbc e062 d8bc 24e2 aa3c
00000290: 79a8 7a3b 907f e1bc 836b d73c 4d98 a73d
000002a0: a840 df3d 3a7f 8c3b 686d 46bd 00ea 24bb
000002b0: 5fc2 963d 4b9f a6bc f288 883d 3471 e8bd
000002c0: aa42 d63d 3f3a 1ebd 855f 343c 0531 3a3d
000002d0: c92c ba3d 8bb7 833a 7a8e ec3a 6e28 b83d
000002e0: c343 253d c231 56bd 67a4 43bd 6183 9f3c
000002f0: 073b 143c 7a7c 9e3d 8e52 4339 111e d9bc

net.3.bias f4 [3]
-0.0080496175 -0.007903224 -0.007914997
00000000: 8be2 03bc 867c 01bc e7ad 01bc
