ppo_actor_critic.pt (torch, 81281 bytes, 5 tensors)

shared.0.weight f4 [64, 300]
0.024754487 0.051338907 -0.011819007 0.005686802 -0.018642323 -0.006998195 0.050697304 0.0050892243
-0.043071847 -0.0063512702 0.046856593 -0.010870283 -0.0056920676 0.04625824 -0.033843182 0.021066127
-0.0016926927 0.008399576 0.051768687 0.015538149 0.017654147 0.029086139 -0.029510563 -0.017075684
0.010221223 -0.0041992334 -0.011190538 -0.024640337 -0.048138287 0.04834171 -0.0052894116 -0.033046525
0.010176614 0.040374286 -0.051575042 -0.0055108857 0.05448702 0.041503053 0.050113656 0.018098963
0.043739375 0.04330565 0.028454613 -0.023482952 -0.058736976 -0.056570888 0.039368175 -0.008344029
0.025539773 -0.033795655 0.052300062 -0.002992478 0.009952444 -0.026486855 -0.037032545 -0.017071338
-0.049695797 -0.029229209 0.0026937132 -0.015519641 0.044158254 -0.021497928 -0.029762782 0.022188243
0.03644462 0.056867894 0.02776444 -0.013575555 -0.02002085 -0.026636474 0.042907674 -0.040589284
-0.0045496495 -0.02094539 0.008004495 0.043393265 0.025517479 -0.004082957 0.0061941445 0.02655815
-0.012432387 -0.0023418523 0.012571711 -0.013438158 0.0111201275 0.013927943 -0.02611441 -0.057717685
0.019445548 0.030055618 0.010439021 0.018122017 0.013801981 -0.008672847 0.021593371 -0.026573157
0.013241529 0.018902734 -0.046827957 -0.051266048 0.04214779 0.042970005 -0.04586342 -0.039506894
-0.05758477 -0.051295865 0.0251594 0.049639653 0.03568046 0.036585882 0.047129136 0.030750893
0.04080818 -0.0403776 0.0051299636 0.032569826 0.045036204 0.0031416768 0.054675326 0.035124253
-0.05429057 0.029915703 -0.0014537722 -0.026277235 0.053869613 -0.039607063 -0.038426876 -0.0124001
-0.004515202 -0.042038385 -0.011192284 0.015511982 0.04744485 -0.0519868 0.0042519397 -0.05724718
0.046523016 0.048726138 0.052894924 0.011835897 0.023961008 0.017332427 0.004775726 0.050587006
0.042790264 0.04045252 -0.024533588 0.02637484 -0.051094625 -0.034177944 -0.030104354 0.029428886
-0.023399675 -0.0065534264 0.030979518 0.014290184 -0.045054153 -0.00566087 0.0187335 0.012825634
-0.0026767235 -0.022037866 -0.00021353026 0.0031036888 0.034417275 0.037989564 -0.0038691363 -0.036576524
0.036447275 -0.04014382 0.032504134 0.04327038 -0.051696315 -0.018765025 0.02359528 0.035316575
0.046361826 -0.026432965 -0.025305137 0.0143442545 0.024526352 -0.055071667 -0.0020785446 0.0024896262
0.015517368 -0.010119309 0.018610073 0.055495903 -0.01584026 -0.021403981 -0.014854519 -0.024472978
-0.0054451623 -0.009044327 0.031161383 -0.021525552 0.024003813 0.036304515 0.035614073 0.034011114
-0.01936218 -0.018325824 0.050360575 -0.04719689 -0.056619246 -0.026674198 -0.0030723484 -0.0409756
0.05542451 -0.017748633 -0.027525986 -0.020609356 0.014667439 0.038777493 0.025840236 -0.046096157
-0.039886087 -0.048665706 0.036278535 0.035021145 0.0009928062 0.033737633 0.0515672 0.05397705
-0.015365108 0.023425715 0.029057998 0.03949589 -0.052817572 0.024338733 0.054340284 0.041544024
-0.054084305 -0.015607174 0.010652456 -0.04064443 0.010397183 0.030107435 0.008435018 0.042786844
0.05378815 -0.057642017 0.04529383 0.03662058 -0.002720852 -0.03024356 -0.044918653 0.049509257
0.030075725 -0.001271001 0.012709715 -0.02111397 -0.03438204 -0.042841822 -0.020474257 0.04671612
00000000: ecc9 ca3c bf48 523d 82a4 41bc 5a58 ba3b
00000010: c9b7 98bc 1d51 e5bb faa7 4f3d 82c3 a63b
00000020: 1b6c 30bd 511e d0bb b3ec 3f3d 4519 32bc
00000030: 8684 babb 4879 3d3d 269f 0abd df92 ac3c
00000040: 58dd ddba 609e 093c 670b 543d b893 7e3c
00000050: 6e9f 903c 0e46 ee3c 23c0 f1bc 4ee2 8bbc
00000060: eb76 273c b999 89bb 8558 37bc 88da c9bc
00000070: a72c 45bd f501 463d cd52 adbb cb5b 07bd
00000080: d0bb 263c 825f 253d 5a40 53bd a994 b4bb
00000090: c82d 5f3d 1bff 293d fa43 4d3d 4744 943c
000000a0: 0f28 333d 4461 313d a619 e93c 525f c0bc
000000b0: 2f96 70bd e0b6 67bd 8640 213d 65b5 08bc
000000c0: c938 d13c 506d 0abd 9738 563d 731d 44bb
000000d0: 930f 233c f6fa d8bc 70af 17bd 31d9 8bbc
000000e0: d28d 4bbd 1872 efbc 0289 303b 1846 7ebc
000000f0: 49df 343d 6c1c b0bc 14d1 f3bc 1ec4 b53c
00000100: f446 153d 4fee 683d 4072 e33c 016c 5ebc
00000110: c402 a4bc bc34 dabc f5bf 2f3d f340 26bd
00000120: 3a15 95bb ab95 abbc 4925 033c 23bd 313d
00000130: 080a d13c 53ca 85bb 40f8 ca3b 7a90 d93c
00000140: 36b1 4bbc c379 19bb 94f9 4d3c b82b 5cbc
00000150: 3231 363c 0732 643c e3ed d5bc 6169 6cbd
00000160: 454c 9f3c 3337 f63c 6d08 2b3c a074 943c
00000170: b421 623c 8f18 0ebc 95e4 b03c f3af d9bc
00000180: 00f3 583c e8d9 9a3c acce 3fbd 59fc 51bd
00000190: 29a3 2c3d 5101 303d 48db 3bbd fbd1 21bd
000001a0: 02de 6bbd 9d1b 52bd 161b ce3c f352 4b3d
000001b0: ad25 123d 14db 153d 7b0a 413d 4ce9 fb3c
000001c0: 7a26 273d fb62 25bd 4119 a83b f067 053d
000001d0: e277 383d 97e4 4d3b 3cf3 5f3d 73de 0f3d
000001e0: ca5f 5ebd c711 f53c 808c beba 5b43 d7bc
000001f0: 62a6 5c3d 043b 22bd 8065 1dbd ca29 4bbc
00000200: 42f4 93bb 7130 2cbd d75f 37bc f825 7e3c
00000210: 8855 423d 1cf0 54bd db53 8b3b 057c 6abd
00000220: eb8e 3e3d 0f95 473d 59a8 583d 5aeb 413c
00000230: e049 c43c bcfc 8d3c b17d 9c3b 5234 4f3d
00000240: d844 2f3d 8bb1 253d aafa c8bc 0c10 d83c
00000250: 9948 51bd 2cfe 0bbd 689d f6bc d914 f13c
00000260: adb0 bfbc 20be d6bb c2c8 fd3c 6021 6a3c
00000270: b48a 38bd d27e b9bb ff76 993c 9c22 523c
00000280: f86b 2fbb c188 b4bc 18e7 5fb9 4267 4b3b
00000290: 21f9 0c3d f29a 1b3d 5691 7dbb 44d1 15bd
000002a0: bd49 153d d96d 24bd 0e23 053d 483c 313d
000002b0: 84bf 53bd 1cb9 99bc e34a c13c 1da8 103d
000002c0: e6e5 3d3d f289 d8bc b84c cfbc 2a04 6b3c
000002d0: 7deb c83c d492 61bd 3138 08bb ff28 233b
000002e0: 8f3c 7e3c 75cb 25bc 2774 983c ac4f 633d
000002f0: 6fc3 81bc 6757 afbc 5e60 73bc 8e7b c8bc
00000300: 556d b2bb a82e 14bc 2846 ff3c 5b56 b0bc
00000310: a5a3 c43c 0bb4 143d 10e0 113d 3d4f 0b3d
00000320: 6f9d 9ebc 0a20 96bc e446 4e3d 8751 41bd
00000330: 95e9 67bd d983 dabc 7459 49bb 08d6 27bd
00000340: d004 633d 9565 91bc 2d7e e1bc f4d4 a8bc
00000350: b34f 703c 26d5 1e3d e7ae d33c 53cf 3cbd
00000360: 985f 23bd b155 47bd cd98 143d 5572 0f3d
00000370: 0c21 823a 7930 0a3d 2138 533d 0a17 5d3d
00000380: efbd 7bbc 49e7 bf3c 0a0b ee3c 71c6 213d
00000390: 3d57 58bd 0662 c73c eb93 5e3d 112a 2a3d
000003a0: 8187 5dbd 3bb5 7fbc a487 2e3c c67a 26bd
000003b0: f258 2a3c dea3 f63c 0833 0a3c 4241 2f3d
000003c0: f750 5c3d 091a 6cbd 0686 393d 76ff 153d
000003d0: 5250 32bb 58c1 f7bc 9ffc 37bd 38ca 4a3d
000003e0: 5e61 f63c b797 a6ba 693c 503c 34f7 acbc
000003f0: 2fd4 0cbd e87a 2fbd a1b9 a7bc 6759 3f3d

shared.0.bias f4 [64]
-0.022394942 -0.008330957 -0.03378545 0.05154225 -0.041363087 0.025346998 -0.03708543 0.012786585
-0.042032912 0.037052993 0.0463751 0.042335946 0.041868966 -0.024711855 0.057871904 -0.0076902714
0.004418332 -0.03431587 0.030158788 -0.051788863 0.045616787 0.052577972 -0.056133196 0.025081653
0.027590014 0.05448395 -0.026447447 -0.04875714 -0.019056525 0.01917213 -0.009422232 0.009675762
0.0063967095 -0.028036684 0.03927815 0.055598572 0.0048269047 0.035403688 0.032124147 -0.038964577
-0.0026463286 0.04096756 -0.038775664 -0.017101169 0.04254652 -0.057464167 -0.023308838 0.046981752
0.019487966 -0.03282871 -0.040025666 -0.025344765 0.03018643 -0.017083876 -0.019231958 0.025983116
-0.03400557 0.017111292 0.005933993 -0.0051710787 -0.056619834 -0.008146163 -0.00061008474 0.0013122103
00000000: 9975 b7bc 917e 08bc 9d62 0abd f71d 533d
00000010: 576c 29bd 82a4 cf3c e4e6 17bd d37e 513c
00000020: b42a 2cbd e1c4 173d d1f3 3d3d 7568 2d3d
00000030: cb7e 2b3d 8470 cabc 170b 6d3d acfe fbbb
00000040: a8c7 903b cc8e 0cbd 900f f73c 8f20 54bd
00000050: abd8 3a3d 005c 573d eceb 65bd 0a78 cd3c
00000060: 7404 e23c 902a 5f3d 51a8 d8bc 91b5 47bd
00000070: 6e1c 9cbc df0e 9d3c b55f 1abc 1687 1e3c
00000080: 7d9b d13b 30ad e5bc 20e2 203d 54bb 633d
00000090: 032b 9e3b 7503 113d 9c94 033d 5299 1fbd
000000a0: 076e 2dbb 9acd 273d 3bd3 1ebd c017 8cbc
000000b0: 4245 2e3d 8c5f 6bbd 2df2 bebc f06f 403d
000000c0: 3aa5 9f3c 6677 06bd f4f1 23bd d39f cfbc
000000d0: 8849 f73c 7cf3 8bbc 578c 9dbc 8bda d43c
000000e0: 6d49 0bbd fb2c 8c3c f171 c23b 2772 a9bb
000000f0: 33ea 67bd 7c77 05bc 18ee 1fba 79fe ab3a

actor.weight f4 [3, 64]
-0.12173136 -0.11457429 0.08165359 -0.11990504 0.07573684 -0.04971355 0.08306375 -0.07460125
0.020752013 -0.04806628 -0.0821064 0.033649363 0.10327034 0.07363483 0.04840539 0.06029265
-0.09916545 -0.03924553 0.022058478 -0.093778 -0.10849858 -0.0893656 0.0015799712 -0.11125301
0.0055875997 -0.020045632 -0.1043704 0.006883332 0.10446719 -0.037421998 -0.07577856 -0.11949252
-0.04526763 0.08648736 -0.047828525 0.041829094 -0.104836844 -0.011253191 0.09894302 -0.07425841
0.019969912 0.106117405 0.027452629 -0.1015625 -0.021217601 0.028057707 -0.06528185 -0.10666021
-0.061887782 0.101689056 -0.061354663 0.013495522 0.071037695 -0.11854014 -0.119439475 -0.07052178
-0.09248263 -0.09684048 0.032976262 -0.015524702 -0.11165002 0.0533012 -0.059798602 0.118098356
0.0070060897 0.09884997 0.083854236 0.03207551 -0.013663897 -0.072488055 0.054232262 0.104001336
-0.067606315 0.005065125 -0.052769225 -0.09321648 0.09464013 -0.10557169 0.09190107 -0.0140078915
-0.11765721 -0.08958933 0.03803436 -0.052506857 0.039509956 -0.006811776 -0.040597826 0.11572965
-0.10386755 0.056930088 -0.03897447 0.019794883 -0.02350417 0.109747484 -0.010991299 -0.04761565
0.11561453 -0.039087217 0.011057025 0.12044039 -0.09762034 -0.12572247 -0.09598165 0.08583927
-0.021177081 0.093996756 -0.027203126 -0.052715715 -0.053978473 0.092598386 0.07154553 0.114531346
-0.045627434 0.12211812 0.100573756 -0.02278703 0.016853329 0.083739236 0.015595598 0.070812814
0.11542719 0.04469951 -0.08524886 -0.08755158 -0.09173167 0.038558405 0.054540783 0.07114784
0.016077593 -0.049896628 -0.027110444 0.037802216 -0.049165208 0.01669941 0.060592823 -0.06903209
0.03861752 0.10462911 -0.030617362 -0.034049798 0.05991603 -0.032495793 0.031791244 0.010762688
-0.0655524 0.019293785 0.08988734 -0.065155156 -0.12327511 -0.09117556 -0.122774564 0.0059321164
0.061720222 -0.08683664 -0.022713725 0.027168112 -0.027118979 0.05268681 0.118778475 0.0509134
0.028438056 0.037799306 -0.084807135 -0.115714975 -0.0028632688 0.04292673 -0.02984109 0.11311021
-0.04231164 -0.082860954 -0.10237594 -0.0058674947 -0.075083725 0.113098405 -0.0732593 -0.03392996
0.051311158 0.031634115 -0.11269966 -0.0026304792 -0.12571256 0.034945026 -0.04169219 -0.0012799923
0.086052 0.09114634 -0.04476177 -0.030741842 -0.10298628 -0.08876326 0.06501431 -0.09855358
00000000: 4b4e f9bd eda5 eabd ff39 a73d c690 f5bd
00000010: eb1b 9b3d 6fa0 4bbd 541d aa3d 8ac8 98bd
00000020: 2000 aa3c 26e1 44bd 6627 a8bd ead3 093d
00000030: 667f d33d dccd 963d bb44 463d 6df5 763d
00000040: 4117 cbbd ecbf 20bd fbb3 b43c ae0e c0bd
00000050: 8134 debd 5005 b7bd 0917 cf3a 9ed8 e3bd
00000060: 2f18 b73b bd36 a4bc 26c0 d5bd 938d e13b
00000070: e5f2 d53d cf47 19bd ca31 9bbd 7fb8 f4bd
00000080: 8d6a 39bd 4920 b13d d8e7 43bd fc54 2b3d
00000090: b3b4 d6bd 4e5f 38bc a3a2 ca3d cb14 98bd
000000a0: f197 a33c 1554 d93d 56e4 e03c 0000 d0bd
000000b0: 89d0 adbc 47d9 e53c 7eb2 85bd ab70 dabd
000000c0: 0b7e 7dbd 5a42 d03d 074f 7bbd 521c 5d3c
000000d0: 367c 913d 2cc5 f2bd af9c f4bd b96d 90bd
000000e0: 8867 bdbd 4d54 c6bd 1e12 073d 525b 7ebc
000000f0: c4a8 e4bd 5c52 5a3d 61ef 74bd 8ddd f13d
00000100: 5793 e53b da71 ca3d c5bb ab3d 9c61 033d
00000110: 8ade 5fbc 9e74 94bd a622 5e3d a7fe d43d
00000120: 2e75 8abd 59f9 a53b 8b24 58bd 48e8 bebd
00000130: afd2 c13d f835 d8bd a136 bc3d 5b81 65bc
00000140: 43f6 f0bd 9c7a b7bd ebc9 1b3d 6e11 57bd
00000150: 31d5 213d 5235 dfbb e849 26bd ab03 ed3d
00000160: 83b8 d4bd 862f 693d b2a3 1fbd e128 a23c
00000170: d18b c0bc 4ac3 e03d d914 34bc a108 43bd
00000180: 50c7 ec3d eb19 20bd 8628 353c 74a9 f63d
00000190: 2ced c7bd 64bd 00be 0792 c4bd 80cc af3d
000001a0: 8f7b adbc 5f81 c03d 17d9 debc 6fec 57bd
000001b0: 8818 5dbd 39a4 bd3d 7686 923d 698f ea3d
000001c0: d5e3 3abd 1119 fa3d 9df9 cd3d deab babc
000001d0: fe0f 8a3c 7a7f ab3d ae84 7f3c 4f06 913d
000001e0: 1765 ec3d d516 373d f496 aebd 3e4e b3bd
000001f0: d0dd bbbd 6bef 1d3d 2866 5f3d f5b5 913d
00000200: 28b5 833c 6860 4cbd b916 debc 7fd6 1a3d
00000210: 7561 49bd 33cd 883c 2e30 783d b260 8dbd
00000220: 682d 1e3d c947 d63d 43d1 fabc cd77 0bbd
00000230: 836a 753d 4f1a 05bd 8937 023d fc55 303c
00000240: 5640 86bd 000e 9e3c db16 b83d 1170 85bd
00000250: a977 fcbd 41ba babd 3b71 fbbd 3362 c23b
00000260: 58ce 7c3d 69d7 b1bd 2212 babc a98f de3c
00000270: 9f28 debc 20ce 573d 2142 f33d 928a 503d
00000280: edf6 e83c 72d3 1a3d 5daf adbd f9fb ecbd
00000290: aea5 3bbb f0d3 2f3d 4d75 f4bc 53a6 e73d
000002a0: f84e 2dbd 01b3 a9bd 7aaa d1bd 1d44 c0bb
000002b0: 7fc5 99bd 23a0 e73d f908 96bd 24fa 0abd
000002c0: a62b 523d c692 013d 14cf e6bd 1e64 2cbb
000002d0: cbba 00be 8422 0f3d 6ec5 2abd 6ac5 a7ba
000002e0: 083c b03d efaa ba3d 1e58 37bd 51d6 fbbc
000002f0: 79ea d2bd 83c9 b5bd 3926 853d 76d6 c9bd

actor.bias f4 [3]
0.0139528755 -0.0909425 0.033351216
00000000: 9a9a 643c 1040 babd 499b 083d

critic.weight f4 [1, 64]
-0.07288249 0.090614244 -0.01573105 0.02134092 -0.08255443 0.08280273 -0.11465205 0.023049803
-0.01541023 -0.05578927 0.07300075 0.11334278 0.095898814 0.011389163 0.019017959 0.030207954
0.099515304 0.10078169 0.12206841 -0.06341603 -0.06663398 -0.027565977 -0.060986616 0.116823226
0.04551727 -0.09678216 -0.037578378 0.111466095 0.10185126 -0.06817047 -0.060227558 -0.055337843
-0.112173036 -0.07854998 0.019551778 -0.060629815 -0.07022238 0.03363926 -0.067054406 -0.08311605
-0.11766047 -0.031876672 0.060028583 0.00010322008 -0.0025148203 0.057590205 -0.11239562 0.083901815
-0.12159487 0.038420863 0.07925254 -0.097819485 -0.05998943 -0.07145508 0.07427104 -0.0040227287
0.090954185 -0.120983236 0.11146289 -0.10953015 0.026986657 0.040196415 0.058377426 0.04715838
00000000: 6a43 95bd f693 b93d 67de 80bc 27d3 ae3c
00000010: 4c12 a9bd 7a94 a93d b2ce eabd f1d2 bc3c
00000020: 307b 7cbc 4a83 64bd 6b81 953d 4220 e83d
00000030: 9966 c43d 9d99 3a3c 8dcb 9b3c ac76 f73c
00000040: aece cb3d a166 ce3d 01ff f93d 43e0 81bd
00000050: 6577 88bd 0bd2 e1bc 1acd 79bd 0441 ef3d
00000060: 5170 3a3d ba35 c6bd c9eb 19bd 5648 e43d
00000070: 6597 d03d f69c 8bbd 2cb1 76bd efa9 62bd
00000080: faba e5bd d0de a0bd 0d2b a03c f856 78bd
00000090: c0d0 8fbd 52c9 093d d253 89bd bf38 aabd
000000a0: f9f7 f0bd 1d91 02bd 88e0 753d dc77 d838
000000b0: afcf 24bb b5e3 6b3d ad2f e6bd b7d4 ab3d
000000c0: bb06 f9bd 325f 1d3d 284f a23d 9555 c8bd
000000d0: 7ab7 75bd 0a57 92bd 6a1b 983d 18d1 83bb
000000e0: 3046 ba3d 0fc6 f7bd a846 e43d 5851 e0bd
000000f0: 1f13 dd3c ffa4 243d 2b1d 6f3d 2529 413d
